checkpoint_alpha_iter100.pt (torch, 85197 bytes, 12 tensors)

conv1.weight f4 [32, 1, 3, 3]
0.2387326 -0.03654694 -0.4156942 0.5478613 -0.2936409 0.38954273 0.29090875 0.6654473
-0.10063539 -0.14400962 -0.5641964 0.18687738 -0.17113394 -0.50030524 0.29065293 -0.38473144
-0.58690184 0.31563392 0.4886464 0.74239767 0.4560357 0.39411867 -0.6322526 -0.51083434
0.038338877 0.5190188 -0.04043295 -0.5774688 0.2001214 -0.061371908 -0.06968457 -0.22795191
0.22807346 -0.5437557 -0.39750123 -0.5418436 -0.16600262 -0.02533673 -0.1359195 -0.24757992
0.17870784 1.1020528 -0.5553356 0.20517182 0.0063220384 0.54131234 -0.5065893 0.102250054
0.030890584 0.012617011 -0.1254165 0.6081461 -0.49156347 0.5578923 0.44760624 0.07807509
0.4764192 0.0779382 0.3090353 -0.34034202 0.059437674 0.15817869 -0.27052495 -0.19429998
0.17312178 0.30570135 0.30287656 0.47170442 -0.33504465 -0.15203987 0.3129676 -0.14253385
-0.1606629 0.354019 -0.19111215 0.67233604 0.47777587 0.24892984 -0.4759807 -0.23158109
0.5810329 -0.4058544 -0.36592036 -0.651281 -0.29429975 0.08373573 -0.22014327 -0.6946755
0.040346365 0.37593606 0.091717325 0.081055716 0.07028775 0.019780748 -0.5139626 -0.5186299
0.07482689 -0.0007626695 0.95474 0.38485873 -0.8039285 0.26526323 0.004477199 0.55003357
0.25395632 0.22603843 0.31715074 0.22186281 0.0740802 -0.28153706 -0.25613537 0.72702134
0.7918881 -0.11562427 -0.0919383 -0.58638906 0.1829828 0.4046232 0.031670664 -0.14336522
0.42699778 0.11504228 -0.3735738 0.33109394 0.1906468 0.09513935 0.2152453 0.33899176
0.24374373 0.23249005 -0.8966139 0.39322263 0.07986739 0.007921265 -0.09850877 -0.51833457
-0.17719355 0.018381169 -0.27559245 0.04027803 -0.34833428 -0.46448347 -0.435912 -0.34370902
0.10270542 -0.37276256 0.5119308 0.123693414 -0.025398815 0.38925052 -0.7429259 0.6552702
-0.55450183 0.93442154 -0.20872389 -0.1901642 -0.2658954 -0.08495665 -0.19094351 -0.20394504
-0.031168098 -0.43525675 -0.18802436 0.3146008 0.41965815 0.46476158 0.26289833 0.3874581
-0.4190584 0.32664034 0.46782443 0.08598071 0.39274412 0.07649828 0.274325 -0.2313217
0.6091002 0.6477911 0.10860918 -0.103236586 0.1767008 -0.798452 0.11009479 -0.28997877
-0.17165293 0.533213 -0.11645607 0.21713328 0.17335789 0.4046926 -0.30089867 0.6826676
0.23622411 -0.13303089 -0.5415755 -0.3198391 -0.60521907 -0.061019305 0.11302789 1.1333272
0.087053634 -0.59928626 0.12260591 -0.08316107 -0.053363442 -0.02720518 -0.11295578 -0.02299636
-0.21648538 -0.27362806 -0.46767566 0.1818654 0.389799 -0.3565263 -0.4350978 -0.2703993
0.5768465 0.4723269 0.3755247 -0.17608492 0.07462583 0.08997505 0.08777281 -0.7068908
0.197534 0.19159068 -0.103642836 0.8053552 0.49980962 0.17672151 0.36932337 0.23291376
0.58440524 0.1773047 -0.5215749 0.17217767 0.49935848 0.30747962 -0.29550233 -0.6509126
0.2914261 0.24291188 -0.2798638 -0.74786764 -0.31931782 -0.7852044 0.14334433 -0.3847291
0.31475127 0.10086491 0.23184547 0.2296745 0.2630691 0.15744625 0.017438296 0.027702702
00000000: 5276 743e 3fb2 15bd dfd5 d4be a340 0c3f
00000010: 1a58 96be 2572 c73e fef1 943e c15a 2a3f
00000020: ed19 cebd 4277 13be 2d6f 10bf c95c 3f3e
00000030: bc3d 2fbe 0114 00bf 76d0 943e 85fb c4be
00000040: 333f 16bf c59a a13e dc2f fa3e c60d 3e3f
00000050: 837d e93e ecc9 c93e 4edb 21bf 0ac6 02bf
00000060: 3a09 1d3d 6bde 043f 059d 25bd ffd4 13bf
00000070: a0ec 4c3e 1c61 7bbd c9b6 8ebd 3a6c 69be
00000080: 178c 693e 9333 0bbf 4885 cbbe 43b6 0abf
00000090: 97fc 29be f98e cfbc 7b2e 0bbe 9785 7dbe
000000a0: 30ff 363e 1110 8d3f 792a 0ebf 9018 523e
000000b0: 1a29 cf3b 7293 0a3f d6af 01bf 7a68 d13d
000000c0: 400e fd3c 94b7 4e3c 2f6d 00be 76af 1b3f
000000d0: 35ae fbbe 08d2 0e3f a52c e53e d5e5 9f3d
000000e0: 38ed f33e 109e 9f3d e039 9e3e 4f41 aebe
000000f0: eb74 733d 98f9 213e 3f82 8abe 93f6 46be
00000100: d646 313e e384 9c3e a312 9b3e 3e83 f13e
00000110: f98a abbe 57b0 1bbe 4a3d a03e 65f4 11be
00000120: d184 24be fa41 b53e e7b2 43be 371e 2c3f
00000130: 0a9f f43e 77e7 7e3e beb3 f3be 9823 6dbe
00000140: 92be 143f 26cc cfbe ea59 bbbe 5aba 26bf
00000150: 75ae 96be a37d ab3d 3d6d 61be 41d6 31bf
00000160: 3b42 253d b17a c03e 4bd6 bb3d 8a00 a63d
00000170: 06f3 8f3d 3c0b a23c 0e93 03bf eec4 04bf
00000180: d73e 993d e2ed 47ba d769 743f 340c c53e
00000190: 42ce 4dbf 95d0 873e 78b5 923b 00cf 0c3f
000001a0: 9006 823e 9e76 673e 9561 a23e 0130 633e
000001b0: 5cb7 973d a025 90be 2d24 83be 121e 3a3f
000001c0: 2eb9 4a3f 6bcc ecbd 264a bcbd 981d 16bf
000001d0: d85f 3b3e c62a cf3e 19b9 013d 55ce 12be
000001e0: 749f da3e 499b eb3d 1145 bfbe 2585 a93e
000001f0: ea38 433e 6bd8 c23d 4469 5c3e 5490 ad3e
00000200: f597 793e df11 6e3e 7d88 65bf 7a54 c93e
00000210: 8491 a33d 32c8 013c f7be c9bd 93b1 04bf
00000220: 3a72 35be 1b94 963c 741a 8dbe 93fa 243d
00000230: df58 b2be c7d0 edbe dc2f dfbe a1fa afbe
00000240: 3857 d23d bcda bebe e60d 033f f952 fd3d
00000250: 2d11 d0bc d84b c73e 6430 3ebf cabf 273f
00000260: d5f3 0dbf 4036 6f3f b7bb 55be 67ba 42be
00000270: 7123 88be c1fd adbd b286 43be f8d6 50be
00000280: 3d54 ffbc f9d9 debe 7589 40be 5b13 a13e
00000290: 6fdd d63e 3bf5 ed3e 9c9a 863e e860 c63e
000002a0: d38e d6be 673d a73e af86 ef3e a816 b03d
000002b0: c215 c93e 21ab 9c3d 5474 8c3e 99df 6cbe
000002c0: feed 1b3f a3d5 253f 7d6e de3d b46d d3bd
000002d0: 0ef1 343e 5a67 4cbf 6179 e13d 1978 94be
000002e0: c9c5 2fbe a680 083f 8580 eebd 3058 5e3e
000002f0: bb84 313e de33 cf3e 640f 9abe 4ec3 2e3f
00000300: bce4 713e 4039 08be b1a4 0abf f3c1 a3be
00000310: a3ef 1abf 61ef 79bd 2b7b e73d de10 913f
00000320: 2d49 b23d d36a 19bf cf18 fb3d 5a50 aabd
00000330: a093 5abd 66dd debc 5c55 e7bd dd62 bcbc
00000340: 58ae 5dbe fa18 8cbe 2f73 efbe ec3a 3a3e
00000350: bc93 c73e 9d8a b6be 24c5 debe c771 8abe
00000360: 36ac 133f d5d4 f13e c644 c03e 9b4f 34be
00000370: 6dd5 983d d744 b83d 3bc2 b33d ccf6 34bf
00000380: 5a46 4a3e 5930 443e b242 d4bd c22b 4e3f
00000390: 0ce7 ff3e 7cf6 343e f417 bd3e f280 6e3e
000003a0: 959b 153f 5d8f 353e ef85 05bf 584f 303e
000003b0: eaab ff3e f86d 9d3e 154c 97be 35a2 26bf
000003c0: cd35 953e e4bd 783e 4f4a 8fbe 4174 3fbf
000003d0: a07d a3be 2803 49bf dbc8 123e 36fb c4be
000003e0: 1427 a13e 4392 ce3d e668 6d3e cb2f 6b3e
000003f0: feb0 863e 9739 213e c2da 8e3c c7f0 e23c

conv1.bias f4 [32]
0.259291 0.3071426 -0.45413268 0.10420555 0.024821166 0.35614792 0.35692164 0.4405824
0.13295783 -0.04418982 -0.0014585729 -0.23248288 0.13653183 0.3388452 -0.23387042 0.3957811
-0.16144806 -0.10001129 0.32384843 0.22827087 -0.013985706 0.019843718 -0.15010451 0.2995377
-0.014908467 -0.21742485 0.20283146 0.1494298 -0.028590081 0.19947073 0.22643657 -0.18232507
00000000: cac1 843e cb41 9d3e 1484 e8be b869 d53d
00000010: c255 cb3c 0559 b63e 6fbe b63e 0494 e13e
00000020: 1926 083e 6200 35bd 962d bfba fe0f 6ebe
00000030: 00cf 0b3e 1e7d ad3e ba7b 6fbe d2a3 ca3e
00000040: a452 25be b8d2 ccbd 76cf a53e d7bf 693e
00000050: 4d24 65bc 4b8f a23c ffb4 19be 015d 993e
00000060: a542 74bc 9fa4 5ebe 0db3 4f3e 2004 193e
00000070: bf35 eabc 0e42 4c3e fdde 673e 6cb3 3abe

conv2.weight f4 [64, 32, 3, 3]
0.11718849 -0.057328254 0.020724196 0.021060128 -0.018699823 0.09873673 -0.037211232 -0.027424911
0.09598568 0.02918214 -0.020787003 0.03035132 0.023636006 -0.051908016 -0.10422366 -0.07056247
-0.03080512 0.005951246 0.008285706 -0.08909958 0.083923 0.059987012 0.105814 0.01346837
0.10261257 0.016623281 0.0025620512 0.06124172 0.10731517 -0.03239898 -0.022867357 -0.085881196
-0.14106402 0.006010698 -0.012115214 -0.08394264 0.12096213 0.04460797 -0.06743721 -0.029313214
0.05924752 -0.14808044 0.10764139 -0.04027894 -0.2683203 -0.047372337 -0.08600392 0.04533737
-0.14325714 -0.15700339 -0.06618592 0.010856111 -0.105253674 -0.0378959 0.035717826 0.028298354
0.075667776 0.048363607 0.0047834213 0.066407144 -0.0022195182 0.008707808 0.051198304 0.02616303
0.0015605019 0.03304453 0.10483039 0.08049948 -0.01790041 -0.033873204 -0.008393287 0.0076411897
0.051603954 0.091004536 0.023858363 0.09199735 0.012728299 0.12744154 -0.067305304 0.116981365
0.03123768 -0.003629733 -0.04064001 -0.024882145 -0.023736546 -0.097061604 -0.02474043 -0.07838202
-0.10290096 -0.041236 0.15214011 -0.069694445 -0.06980831 0.10710341 0.007578012 0.0015991979
0.11371018 0.06281656 0.09682299 0.23029353 -0.01381323 0.043065883 0.043752246 0.07916201
-0.06262881 0.1171638 -0.046214055 0.026685348 -0.050636906 0.035805997 -0.03152289 0.043007627
0.05602666 0.08764608 -0.07330495 0.052404203 0.05435446 -0.048537437 0.07372752 0.098143
-0.047438998 0.049765896 0.11541312 0.007870273 0.013144909 0.014753703 0.09664454 -0.039004486
0.062509336 0.022466207 0.012773742 0.04875906 0.024811085 0.13000678 0.073999405 -0.057574887
-0.07237565 -0.019298824 0.020740062 -0.030750263 -0.034129474 -0.12431411 -0.003384294 -0.096092544
0.015085353 -0.14402553 0.10925952 0.11549646 -0.052470267 0.01057222 0.07337235 0.037067432
-0.027738307 -0.0967362 0.0758154 0.22098231 0.05397501 -0.0255324 0.044333287 -0.0029464755
-0.021609083 -0.047326066 0.13736698 0.1271936 -0.025152504 0.17028953 0.12838817 -0.028163359
-0.07447958 0.10294052 0.0014590801 0.0827201 -0.014427183 0.012682195 0.053815246 0.11240921
0.0939477 -0.012118536 0.032463707 0.04047323 0.01778753 -0.14888561 0.049916748 0.0593658
-0.1538254 -0.110539295 0.025971876 -0.00042343588 -0.043228146 0.004497724 -0.13086295 0.08661989
0.013640707 -0.03780902 -0.008367108 -0.101740845 -0.009664464 0.049503073 0.06496397 -0.016247295
-0.0050879424 -0.026372414 0.029353466 0.029987978 0.056352317 -0.020629212 0.081798114 0.07604264
-0.0857688 -0.048185114 -0.045558155 0.04807863 -0.029885082 0.10101171 -0.07314473 -0.11568984
0.014770536 0.07855476 0.1281379 -0.009306728 -0.088147394 -0.06410642 -0.02510902 0.08615066
0.067517325 0.11399745 0.26107976 0.0799915 0.019897673 -0.09379506 0.024537776 0.09560354
0.1181911 0.1473963 -0.0005104457 0.06849037 0.024524735 -0.077335104 0.006867305 -0.027522694
0.09760509 0.083753906 0.070676096 0.060211875 -0.07963798 -0.042407393 -0.02514329 0.000951966
0.032000594 0.10247038 -0.1357598 0.07529925 -0.09588517 -0.050762124 0.1386965 -0.06009934
00000000: 8500 f03d 08d1 6abd cac5 a93c 4a86 ac3c
00000010: 5f30 99bc 7c36 ca3d ce6a 18bd 35aa e0bc
00000020: 2494 c43d 620f ef3c 8149 aabc 55a3 f83c
00000030: 4ca0 c13c 809d 54bd 3773 d5bd 0e83 90bd
00000040: 055b fcbc ab02 c33b c5c0 073c d779 b6bd
00000050: d2df ab3d f1b4 753d 03b5 d83d 70aa 5c3c
00000060: 8a26 d23d 8c2d 883c 16e8 273b 99d8 7a3d
00000070: 0ec8 db3d cbb4 04bd 5354 bbbc 7be2 afbd
00000080: 1673 10be 64f5 c43b e47e 46bc 1eea abbd
00000090: feba f73d d9b6 363d 851c 8abd 4422 f0bc
000000a0: 87ad 723d 66a2 17be 1773 dc3d 88fb 24bd
000000b0: 4761 89be 7f09 42bd d322 b0bd aeb3 393d
000000c0: 00b2 12be 7fc5 20be 7c8c 87bd d4dd 313c
000000d0: 3d8f d7bd bb38 1bbd db4c 123d f3d1 e73c
000000e0: b5f7 9a3d eb18 463d 3fbe 9c3b 7800 883d
000000f0: 5675 11bb 32ab 0e3c 50b5 513d da53 d63c
00000100: c189 cc3a b359 073d 51b1 d63d e9dc a43d
00000110: e1a3 92bc a1be 0abd ff83 09bc f262 fa3b
00000120: ab5e 533d 9660 ba3d 9d72 c33c 1b69 bc3d
00000130: 5b8a 503c 0980 023e 5dd7 89bd ed93 ef3d
00000140: 2ae6 ff3c d1e0 6dbb 2476 26bd a4d5 cbbc
00000150: 2573 c2bc 3cc8 c6bd 71ac cabc c186 a0bd
00000160: bdbd d2bd 14e7 28bd 9eca 1b3e f6bb 8ebd
00000170: a9f7 8ebd 0859 db3d f950 f83b 2d9c d13a
00000180: e2e0 e83d f8a5 803d 224b c63d 11d2 6b3e
00000190: e350 62bc da65 303d 8e35 333d b11f a23d
000001a0: 8943 80bd 93f3 ef3d f34a 3dbd 3b9b da3c
000001b0: a568 4fbd 4fa9 123d 251e 01bd c428 303d
000001c0: 367c 653d ca7f b33d e820 96bd caa5 563d
000001d0: c8a2 5e3d 31cf 46bd 74fe 963d 32ff c83d
000001e0: 654f 42bd 53d7 4b3d b75d ec3d 51f2 003c
000001f0: bf5d 573c 84b9 713c 93ed c53d 2bc3 1fbd
00000200: e504 803d 0d0b b83c f548 513c 95b7 473d
00000210: 9e40 cb3c 7f20 053e 008d 973d a5d3 6bbd
00000220: af39 94bd 9118 9ebc 10e7 a93c fae7 fbbc
00000230: 59cb 0bbd 6598 febd 08cb 5dbb 2bcc c4bd
00000240: 8e28 773c 6e7b 13be 75c3 df3d 6889 ec3d
00000250: 10eb 56bd 1b37 2d3c 3e44 963d 05d4 173d
00000260: 723b e3bc a11d c6bd 1b45 9b3d 3049 623e
00000270: e614 5d3d 5329 d1bc d296 353d a819 41bb
00000280: 8805 b1bc fad8 41bd eea9 0c3e 0a3f 023e
00000290: a00c cebc 6160 2e3e 3078 033e d8b6 e6bc
000002a0: c088 98bd 7bd2 d23d 9b3e bf3a 2869 a93d
000002b0: fe5f 6cbc fbc8 4f3c 606d 5c3d cd36 e63d
000002c0: a767 c03d d38c 46bc aaf8 043d 42c7 253d
000002d0: 27b7 913c 7875 18be 8175 4c3d 8e29 733d
000002e0: 6884 1dbe 6d62 e2bd f9c2 d43c 9a00 deb9
000002f0: ff0f 31bd a561 933b f000 06be c565 b13d
00000300: 467d 5f3c a2dd 1abd 3216 09bc 815d d0bd
00000310: b357 1ebc bcc3 4a3d d40b 853d 0c19 85bc
00000320: c1b8 a6bb f60a d8bc ae76 f03c 59a9 f53c
00000330: b0d1 663d 98fe a8bc c585 a73d 3ebc 9b3d
00000340: 8da7 afbd c15d 45bd 309b 3abd 19ee 443d
00000350: 8fd1 f4bc 3adf ce3d e7cc 95bd cbee ecbd
00000360: 1e00 723c 51e1 a03d 9536 033e 3f7b 18bc
00000370: 9f86 b4bd 3a4a 83bd 6eb1 cdbc c26f b03d
00000380: 8646 8a3d 7f77 e93d 3fac 853e 95d2 a33d
00000390: 7200 a33c a017 c0bd 7203 c93c cacb c33d
000003a0: 2d0e f23d 0eef 163e 6ecf 05ba ae44 8c3d
000003b0: 19e8 c83c de61 9ebd 2107 e13b 4677 e1bc
000003c0: 2de5 c73d 2b87 ab3d a1be 903d baa0 763d
000003d0: 3d19 a3bd 60b3 2dbd 4df9 cdbc 5b8d 793a
000003e0: 0e13 033d fedb d13d 9e04 0bbe 7e36 9a3d
000003f0: 725f c4bd f2eb 4fbd 7506 0e3e ba2a 76bd

conv2.bias f4 [64]
0.061919924 0.02996091 -0.055057917 0.0074070734 -0.031197978 0.06645627 -0.039930902 0.07019308
0.01617769 -0.0077353567 0.020395132 0.054286133 0.08650664 -0.06271591 -0.011811733 0.17249374
-0.010752309 0.07032276 0.039411753 -0.017916273 0.029420216 0.01543275 0.09454233 -0.0043857563
0.05012297 0.025119705 0.071940646 0.06463307 0.06452158 -0.07902395 0.03491536 0.048132677
-0.0037959889 0.00092694926 -0.053739723 -0.03437824 0.060381006 -0.03282749 -0.05415045 0.00022759795
0.070152976 0.04702263 0.02636263 0.15694073 0.111243404 0.0610582 0.029445026 -0.070765965
-0.07107734 -0.040586542 0.07365512 0.043769166 -0.0306068 -0.06894089 0.0971666 0.04163226
-0.014458782 -0.026198609 -0.016579667 -0.047759123 0.03158996 0.0013632143 -0.00092709874 -0.07159788
00000000: bf9f 7d3d 9570 f53c 6984 61bd 09b7 f23b
00000010: e792 ffbc 3a1a 883d 968e 23bd 64c1 8f3d
00000020: 1387 843c e078 fdbb b113 a73c 235b 5e3d
00000030: 652a b13d 3371 80bd 0086 41bc 33a2 303e
00000040: 742a 30bc 6105 903d 386e 213d 26c5 92bc
00000050: aa02 f13c a5d9 7c3c 699f c13d 64b6 8fbb
00000060: be4d 4d3d d7c7 cd3c 9e55 933d 585e 843d
00000070: e423 843d 4fd7 a1bd 6903 0f3d c526 453d
00000080: 20c6 78bb 83fe 723a 2f1e 5cbd 33d0 0cbd
00000090: 1352 773d 1e76 06bd ddcc 5dbd 5ca7 6e39
000000a0: 5dac 8f3d cd9a 403d 71f6 d73c 12b5 203e
000000b0: 95d3 e33d 2a18 7a3d b236 f13c bfed 90bd
000000c0: ff90 91bd 133e 26bd 7fd8 963d 4c47 333d
000000d0: 1dbb fabc e230 8dbd 48ff c63d 9786 2a3d
000000e0: 87e4 6cbc 779e d6bc 15d2 87bc 129f 43bd
000000f0: 7964 013d e2ad b23a 8b08 73ba e9a1 92bd

policy_conv.weight f4 [2, 64, 1, 1]
-0.14449935 0.914789 0.9841935 0.8882759 0.5455562 -0.6017116 -0.25095364 0.08170376
-0.5533505 0.24418095 0.10088002 0.16405171 -0.27468637 1.376142 0.30245247 -0.68789256
-0.7581314 -0.12207645 -0.24270502 0.73113614 0.6134221 0.084035486 -0.4477115 -0.22911397
0.05585318 0.080311365 -0.31969386 -0.21750277 0.27648228 0.613822 0.28239155 0.45421976
0.24126627 -0.23088865 0.14491315 0.4672843 -0.023907976 0.84411293 -0.5520499 -0.5193094
-0.47342855 -0.5257459 0.54901963 -0.7088116 0.19601986 -0.23102492 0.81738997 -0.26307166
-0.18496591 0.93962985 -0.24140489 0.29993036 0.048090868 -0.6540342 0.04997047 -0.37144613
0.543921 -0.39390346 0.8313438 0.7250456 0.24318556 0.14510986 -0.5187412 -0.10935653
-0.1359817 -0.49100894 -0.8517514 -0.5738291 -0.284911 -0.77104837 0.7434178 0.24817312
0.12133373 0.23487003 0.9218303 0.25049332 -0.9561909 -0.23036985 0.21505162 -0.72211635
-0.08568157 1.1529088 -0.72047025 -0.15201914 -0.20047715 -0.4260592 0.37964085 -0.3520363
0.5515278 1.025314 -0.7711268 0.39623874 0.22232668 -0.63129467 0.26625824 -0.08026921
1.2596934 -0.30757847 1.206608 0.8520405 0.39222112 0.057282753 -0.5848266 -1.0096326
0.21867526 1.1157131 0.13950844 -0.3484884 0.31391323 0.40431517 -0.52268517 -0.26148373
-0.01389697 -0.34662652 0.39661723 0.30482915 0.9774381 -0.6025882 1.1133428 0.6506377
-0.20522876 -0.92404634 -0.6784426 -0.31440052 0.3354994 0.21277106 0.39481047 -0.006546112
00000000: a3f7 13be 9d2f 6a3f 1bf4 7b3f 0d66 633f
00000010: 92a9 0b3f c509 1abf ff7c 80be 4d54 a73d
00000020: 61a8 0dbf 920a 7a3e 2f9a ce3d 2cfd 273e
00000030: b1a3 8cbe 6c25 b03f 0ddb 9a3e ba19 30bf
00000040: e614 42bf 3803 fabd aa87 78be bd2b 3b3f
00000050: 3b09 1d3f cc1a ac3d 713a e5be da9c 6abe
00000060: 4ec6 643d 497a a43d eaae a3be 0cb9 5ebe
00000070: 168f 8d3e 7023 1d3f a095 903e 7e8f e83e
00000080: 810e 773e 136e 6cbe 1d64 143e e33f ef3e
00000090: a9da c3bc c917 583f 2453 0dbf 76f1 04bf
000000a0: 3a65 f2be 4997 06bf 8d8c 0c3f ad74 35bf
000000b0: 6eb9 483e cc91 6cbe 7840 513f 54b1 86be
000000c0: b467 3dbe 958b 703f d832 77be 7990 993e
000000d0: eefa 443d c96e 27bf d6ad 4c3d 302e bebe
000000e0: 683e 0b3f b7ad c9be f3d2 543f 979c 393f
000000f0: a305 793e ae97 143e 39cc 04bf 51f6 dfbd
00000100: c93e 0bbe 8665 fbbe 610c 5abf 77e6 12bf
00000110: dbdf 91be 6d63 45bf a150 3e3f 1821 7e3e
00000120: d27d f83d c581 703e 12fd 6b3f a940 803e
00000130: edc8 74bf 13e6 6bbe 7e36 5c3e 9edc 38bf
00000140: d279 afbd 8492 933f bd70 38bf e8aa 1bbe
00000150: e249 4dbe 6e24 dabe 4960 c23e 1a3e b4be
00000160: ed30 0d3f 7d3d 833f 9168 45bf cedf ca3e
00000170: 9ba9 633e 879c 21bf 0053 883e 2f64 a4bd
00000180: a23d a13f ed7a 9dbe 2272 9a3f 541f 5a3f
00000190: 35d1 c83e 52a1 6a3d 32b7 15bf a43b 81bf
000001a0: 68ec 5f3e b0cf 8e3f 4ddb 0e3e 126d b2be
000001b0: 3cb9 a03e 6602 cf3e b2ce 05bf 32e1 85be
000001c0: 1eb0 63bc 0879 b1be 6a11 cb3e 9112 9c3e
000001d0: 6239 7a3f 3843 1abf 0482 8e3f 3190 263f
000001e0: 7d27 52be 4d8e 6cbf 6aae 2dbf 1bf9 a0be
000001f0: 94c6 ab3e a8e0 593e 9924 ca3e c480 d6bb

policy_conv.bias f4 [2]
-0.029372644 0.12756687
00000000: e69e f0bc e4a0 023e

policy_fc.weight f4 [9, 18]
-0.071001485 0.9191951 0.18185481 -0.7842793 -0.26320356 0.029037882 -0.041285153 0.49344492
0.28843737 -0.5495133 0.49205387 -0.23802389 -0.08817251 -0.22506312 -0.20488131 -0.0584952
0.057689648 0.05197106 0.24814034 -0.93729967 0.011643811 -0.90363395 -0.50735044 0.23880102
-0.21759601 0.10875276 0.2248097 0.4321217 -0.4126295 0.15870346 0.28933632 0.107336655
-0.13743243 0.14402072 0.23294018 0.06236521 0.39904934 0.17193903 -0.2522845 0.34304354
-0.4081963 -1.106156 0.104682714 -0.013006228 -0.017152192 -0.23556742 -0.20516591 -0.8460267
-0.07072572 0.21157499 0.3785793 0.029393962 0.19058804 0.17733598 -0.87177545 -0.34560612
-0.36529723 0.053565525 -0.0262659 0.21115503 -0.44780383 -0.013155999 0.036514685 0.17126152
-0.027247254 -0.18481149 -1.0052304 0.36489117 0.07818521 0.045416463 0.14433697 0.11990893
-0.3953098 -0.03201061 -0.32003158 0.19339862 -0.059124004 0.1848465 -0.6170447 -0.2919709
0.07986649 0.36121812 -0.16360416 -0.05269619 0.0040206825 -0.7355016 0.2941073 0.09004514
0.204713 0.021253416 0.050230555 -0.4892098 0.3806618 0.29077208 0.25873986 -0.091637775
0.11380559 -0.44571027 -1.2686164 -0.3887054 0.102755785 0.082611196 0.17814092 0.055414032
-0.49388772 -0.022015741 0.2028576 0.28695682 0.37004596 0.2500952 -0.1926174 0.21765572
-0.03868486 -0.0695716 0.27607837 0.037668668 -0.06411169 0.12347254 -0.1335368 0.33061752
-0.13379754 -0.14390697 0.16185813 -1.7692541 0.18369119 0.05527818 0.05276703 -0.280832
-0.26399848 0.01438276 0.22468022 0.22405484 0.13788643 0.19565982 0.07751099 0.31544232
-0.2544197 -0.25656074 0.22905518 -0.079646915 0.006371246 0.062401198 -1.144321 0.18247396
0.454291 -0.4923128 0.19824915 0.1574854 0.19689022 -0.14977677 0.2010348 0.13331062
-0.030434538 0.05515922 0.25320297 0.06765879 0.05401231 0.027931334 -0.09110682 0.02895453
0.06778296 -1.5290601
00000000: 3a69 91bd 5f50 6b3f 2638 3a3e 87c6 48bf
00000010: 9ec2 86be dae0 ed3c 9f1a 29bd d0a4 fc3e
00000020: 10ae 933e e7ac 0cbf 7cee fb3e 89bc 73be
00000030: ca93 b4bd f276 66be 68cc 51be aa98 6fbd
00000040: fb4b 6c3d 9bdf 543d 8018 7e3e dff2 6fbf
00000050: afc5 3e3c 8e54 67bf b8e1 01bf 4188 743e
00000060: 7dd1 5ebe c4b9 de3d 8434 663e 0e3f dd3e
00000070: 2c44 d3be 2983 223e e423 943e 52d3 db3d
00000080: 16bb 0cbe 2b7a 133e df87 6e3e aa72 7f3d
00000090: 3250 cc3e c910 303e 6f2b 81be 67a3 af3e
000000a0: 1bff d0be 8596 8dbf e463 d63d 1318 55bc
000000b0: c182 8cbc 9638 71be 0317 52be 3595 58bf
000000c0: a5d8 90bd 1da7 583e 25d5 c13e 9bcb f03c
000000d0: 8329 433e 9097 353e ad2c 5fbf 49f3 b0be
000000e0: 3d08 bbbe 8667 5b3d 962b d7bc 0639 583e
000000f0: 8b46 e5be 428c 57bc 6c90 153d 2e5f 2f3e
00000100: a235 dfbc 393f 3dbe 64ab 80bf 04d3 ba3e
00000110: 911f a03d 9d06 3a3d 12cd 133e d092 f53d
00000120: 0c66 cabe 8f1d 03bd 2edb a3be 4a0a 463e
00000130: 032c 72bd 6748 3d3e a4f6 1dbf 367d 95be
00000140: 0b91 a33d 95f1 b83e d987 27be f6d7 57bd
00000150: eebf 833b d549 3cbf 3b95 963e 9669 b83d
00000160: 49a0 513e a51b ae3c 8ebe 4d3d b579 fabe
00000170: 1ae6 c23e 14e0 943e 8d79 843e 96ac bbbd
00000180: e812 e93d 2334 e4be 0662 a2bf 6504 c7be
00000190: a071 d23d 0f30 a93d 936a 363e d3f9 623d
000001a0: dade fcbe 5b5a b4bc e7b9 4f3e 01ec 923e
000001b0: aa76 bd3e 7a0c 803e 7f3d 45be 24e1 5e3e
000001c0: 0474 1ebd 8e7b 8ebd 255a 8d3e 764a 1a3d
000001d0: fd4c 83bd 2cdf fc3d dfbd 08be b346 a93e
000001e0: 3902 09be 595c 13be 23be 253e eb76 e2bf
000001f0: 8b19 3c3e 5f6b 623d 3e22 583d 36c9 8fbe
00000200: cf2a 87be aba5 6b3c 9212 663e a26e 653e
00000210: 1a32 0d3e 0c5b 483e 15be 9e3d a881 a13e
00000220: 4d43 82be ee5b 83be 718d 6a3e ec1d a3bd
00000230: e3c5 d03b 6698 7f3d 1c79 92bf 74da 3a3e
00000240: d498 e83e 6c10 fcbe d301 4b3e da43 213e
00000250: 979d 493e 155f 19be 11dc 4d3e 9482 083e
00000260: da51 f9bc a2ee 613d d2a3 813e b190 8a3d
00000270: 033c 5d3d 41d0 e43c 3696 babd 0d32 ed3c
00000280: cbd1 8a3d 3eb8 c3bf

policy_fc.bias f4 [9]
-0.22362112 -0.20621496 -0.11232264 0.06402575 -0.10306303 -0.13065544 0.15493122 0.19546822
-0.055314705
00000000: effc 64be 042a 53be 6a09 e6bd ef1f 833d
00000010: b612 d3bd 8aca 05be 4aa6 1e3e d228 483e
00000020: ac91 62bd

value_conv.weight f4 [1, 64, 1, 1]
-0.25956368 0.11738015 -0.033859942 -0.03471367 0.22116752 -0.13687888 0.1395014 0.011582954
0.18702225 0.05081599 0.07245034 -0.08892067 -0.0037066315 -0.06092751 0.017602347 -0.01765179
-0.18704462 -0.019148976 -0.018453227 -0.16271307 0.23489057 0.17591374 -0.076125555 -0.2882822
0.15164055 0.11955469 0.027126282 0.016233504 0.020666296 0.17955078 0.0049430025 0.18628098
0.07197719 -0.5108459 -0.13434303 -0.30641657 0.011400604 -0.084595904 0.23435552 0.22824031
-0.20127074 -0.010727225 0.026039276 0.012113647 0.015906798 0.04421191 0.060488004 0.5315953
0.30536416 0.22689809 -0.11134385 -0.035217073 -0.008802785 0.3051874 0.022644917 0.11215865
-0.07911832 0.009640386 0.02054297 -0.3723756 -0.027679615 -0.040252324 0.1652614 -0.33985618
00000000: 88e5 84be 0165 f03d b9b0 0abd ec2f 0ebd
00000010: bd79 623e fa29 0cbe 74d9 0e3e 6ec6 3d3c
00000020: c382 3f3e 6d24 503d d860 943d 0a1c b6bd
00000030: f5ea 72bb 208f 79bd cc32 903c 7d9a 90bc
00000040: a088 3fbe 50de 9cbc 392b 97bc 419e 26be
00000050: 2787 703e bb22 343e b7e7 9bbd b999 93be
00000060: a947 1b3e 17d9 f43d f037 de3c 20fc 843c
00000070: 5d4c a93c 29dc 373e e9f8 a13b 71c0 3e3e
00000080: c768 933d ccc6 02bf 3891 09be a2e2 9cbe
00000090: 99c9 3a3c 9e40 adbd e5fa 6f3e d4b7 693e
000000a0: eb19 4ebe 3ec1 2fbc 5250 d53c 5178 463c
000000b0: f94e 823c 8c17 353d 45c2 773d a116 083f
000000c0: b158 9c3e f957 683e 3f08 e4bd c73f 10bd
000000d0: 8e39 10bc 8641 9c3e d581 b93c 6fb3 e53d
000000e0: c908 a2bd b6f2 1d3c bb49 a83c 04a8 bebe
000000f0: 5cc0 e2bc 9fdf 24bd 493a 293e a101 aebe

value_fc1.weight f4 [64, 9]
0.11776581 0.054558784 -0.14348558 0.26531768 -0.6138599 0.3356083 0.24060641 0.031333487
-0.20969592 0.17759238 -0.3484879 -0.19159734 0.30672067 -0.10601882 -0.19881685 -0.07592123
0.39291593 0.0075416304 0.49680978 0.09299805 -0.08055353 0.0799555 -0.3252877 0.16699764
-0.11328695 0.094109245 0.03856987 0.17721948 0.16260171 0.34970376 -0.07305358 0.33002105
-0.066374704 -0.11554139 0.21135548 0.16263445 -0.22756991 -0.068510145 -0.14507966 -0.072787166
0.10699406 -0.163464 -0.0013979673 -0.11683707 -0.18395607 0.39466095 -0.20760034 -0.20057425
-0.22584961 -0.38963687 0.079380706 0.53368956 0.3054589 -0.19305503 0.39678976 -0.29469597
0.00648336 -0.24745056 -0.12005309 0.22629465 0.0355949 0.1017778 0.011300008 -0.3240823
-0.1347791 0.39467403 0.00082893105 0.50636023 -0.12477481 -0.09535509 0.14544977 -0.041028537
0.42172974 0.25285053 -0.050825205 -0.28476194 -0.24079013 0.28645322 0.19022092 0.08305557
0.15981825 0.3952838 0.20066956 0.17234743 0.20651612 -0.34054887 0.42631954 -0.11542467
-0.17542009 0.1531119 0.13238105 -0.030737966 0.15110926 0.2515519 0.188083 -0.27149832
-0.0961433 0.13678338 0.16954693 0.06947777 0.10136688 0.111030154 -0.3157128 -0.38000047
0.3374367 -0.17111343 0.16293375 0.22541119 -0.05485428 -0.26228338 0.4035403 0.3649257
0.13903564 0.062706575 0.1413329 -0.07887354 0.1787747 -0.32853082 0.21315688 0.4600692
0.003464469 0.47168082 -0.16275777 0.21245608 0.30825347 -0.20537627 -0.3190187 -0.45923874
0.03858517 0.34404337 0.4489053 -0.28351063 -0.01008315 -0.077529386 0.31213233 0.28626963
0.03620071 -0.27468297 -0.18079826 0.052727632 0.38190737 0.26975366 -0.47516376 0.12793708
0.010892266 -0.05420362 0.30235204 0.099009365 0.33965704 0.069264434 0.009180268 0.25540727
-0.36200625 0.42919156 0.060942173 0.07790007 -0.08923058 -0.45566273 0.27952248 -0.06716585
-0.3077486 -0.0349624 0.42807803 -0.009405477 -0.00081358716 0.2543796 0.23280811 0.29502288
0.38842893 -0.36080772 -0.056417678 0.056272 -0.107060745 0.22399643 0.2752906 0.33163843
0.12045485 -0.025491986 0.22358468 0.13399984 0.0211171 -0.17976803 0.2579831 0.33324915
0.294083 0.10457909 -0.26649973 0.16437452 -0.1773127 0.27547476 -0.04206251 -0.23073566
-0.26053545 -0.41271186 0.39887634 0.23171751 0.17384906 0.27545017 0.018560382 -0.13877657
0.003159926 0.04140697 0.116546236 0.27528292 0.099347696 -0.48653576 0.042993944 -0.16301179
-0.15924454 0.43332586 0.18535042 0.3923644 0.18675862 0.059048135 0.27320173 0.021899676
0.058273688 -0.17489257 0.047652364 -0.22976504 0.08829657 0.36578315 -0.15304492 -0.04840369
0.11799038 0.43863022 -0.48095214 0.19533382 0.026759543 -0.38339537 0.1375001 -0.020396784
-0.18119998 -0.34674492 0.14880438 0.08647321 -0.44792074 0.21509692 -0.7952407 0.507438
0.115890935 -0.46722275 0.07971647 0.30694696 -0.12202208 0.17565756 -0.23478535 -0.29066506
0.15299511 0.26656052 0.103617206 0.2914015 -0.37220156 0.32721993 0.4270074 0.36059898
00000000: 332f f13d 0879 5f3d e2ed 12be b8d7 873e
00000010: ec25 1dbf dad4 ab3e 8761 763e 8b57 003d
00000020: 87ba 56be c7da 353e 026d b2be 1832 44be
00000030: 7e0a 9d3e 6520 d9bd a596 4bbe 977c 9bbd
00000040: 472c c93e c81f f73b da5d fe3e c375 be3d
00000050: 40f9 a4bd b6bf a33d 1c8c a6be 6e01 2b3e
00000060: fd02 e8bd 59bc c03d 71fb 1d3d 0679 353e
00000070: 1081 263e 5f0c b33e 1e9d 95bd 85f8 a83e
00000080: 76ef 87bd f7a0 ecbd 926d 583e a589 263e
00000090: 1608 69be 0c4f 8cbd c38f 14be 7011 95bd
000000a0: b41f db3d 1b63 27be 003c b7ba 4648 efbd
000000b0: fb5e 3cbe 0011 ca3e 2f95 54be 5663 4dbe
000000c0: 1f45 67be 7c7e c7be 5a92 a23d e19f 083f
000000d0: 1c65 9c3e 38b0 45be 0728 cb3e 64e2 96be
000000e0: 5e72 d43b ae63 7dbe 65de f5bd c9b9 673e
000000f0: f5cb 113d e170 d03d ab23 393c 1dee a5be
00000100: 8803 0abe b712 ca3e 9f4c 593a d3a0 013f
00000110: f089 ffbd 8849 c3bd c9f0 143e 8a0d 28bd
00000120: f6ec d73e a075 813e 172e 50bd 51cc 91be
00000130: b091 76be ffa9 923e 46c9 423e 0a19 aa3d
00000140: 65a7 233e a362 ca3e 527c 4d3e d87b 303e
00000150: f678 533e 6c5c aebe 8e46 da3e c563 ecbd
00000160: 53a1 33be 5ec9 1c3e e68e 073e 30ce fbbc
00000170: 63bc 1a3e 69cb 803e d498 403e d401 8bbe
00000180: c7e6 c4bd f110 0c3e b69d 2d3e 5c4a 8e3d
00000190: 7099 cf3d c763 e33d 1ca5 a1be 6c8f c2be
000001a0: 81c4 ac3e 5c38 2fbe 1bd8 263e 31d2 663e
000001b0: e2ae 60bd 024a 86be d69c ce3e 8bd7 ba3e
000001c0: 5c5f 0e3e 4e6c 803d 92b9 103e 7388 a1bd
000001d0: b710 373e 3135 a8be cc45 5a3e 318e eb3e
000001e0: 250c 633b 2680 f13e f9a9 26be 168e 593e
000001f0: 66d3 9d3e 284e 52be 6b56 a3be 5721 ebbe
00000200: 7c0b 1e3d 7426 b03e ead6 e53e 4e28 91be
00000210: cc33 25bc bac7 9ebd cfcf 9f3e ef91 923e
00000220: 3247 143d 3fa3 8cbe 2e23 39be eef8 573d
00000230: 5d89 c33e 271d 8a3e aa48 f3be f001 033e
00000240: 7a75 323c 9d04 5ebd e3cd 9a3e 6cc5 ca3d
00000250: 87e7 ad3e 83da 8d3d d668 163c bec4 823e
00000260: e258 b9be ffbe db3e 809e 793d 128a 9f3d
00000270: 86be b6bd a04c e9be 921d 8f3e 408e 89bd
00000280: 3991 9dbe bc34 0fbd 0b2d db3e 6e19 1abc
00000290: e946 55ba 0b3e 823e 4065 6e3e 3d0d 973e
000002a0: 28e0 c63e cabb b8be 3916 67bd 787d 663d
000002b0: aa42 dbbd 525f 653e e4f2 8c3e 83cc a93e
000002c0: 08b1 f63d 92d4 d0bc 62f3 643e 4137 093e
000002d0: c5fd ac3c 1c15 38be 5c16 843e a29f aa3e
000002e0: 0c92 963e 902d d63d a772 88be cb51 283e
000002f0: 7691 35be 070b 8d3e bd49 2cbd f845 6cbe
00000300: e764 85be f84e d3be 8539 cc3e 5b47 6d3e
00000310: 7d05 323e ce07 8d3e f10b 983c 721b 0ebe
00000320: c316 4f3b 5b9a 293d cbaf ee3d e2f1 8c3e
00000330: ce76 cb3d 371b f9be 6b1a 303d 90ec 26be
00000340: 0011 23be e3dc dd3e 80cc 3d3e fde3 c83e
00000350: a73d 3f3e 75dc 713d 19e1 8b3e f366 b33c
00000360: 64b0 6e3d 0a17 33be 202f 433d 8747 6bbe
00000370: d5d4 b43d ee47 bb3e cfb7 1cbe f342 46bd
00000380: f1a4 f13d 2494 e03e 5c3f f6be 9705 483e
00000390: d436 db3c 664c c4be d4cc 0c3e 2817 a7bc
000003a0: 7d8c 39be 8d88 b1be 2d60 183e de18 b13d
000003b0: de55 e5be 5e42 5c3e e594 4bbf 75e7 013f
000003c0: 3a58 ed3d d237 efbe 6342 a33d 2728 9d3e
000003d0: b6e6 f9bd 93df 333e 926b 70be 0dd2 94be
000003e0: c0aa 1c3e 9f7a 883e 4235 d43d 9432 953e
000003f0: 3491 bebe 5f89 a73e b7a0 da3e 6ea0 b83e

value_fc1.bias f4 [64]
0.0005675307 0.35304704 0.27034503 0.07554107 -0.07909271 0.013832574 0.3048327 0.113225214
0.14210373 0.13743973 0.18743128 -0.0005948614 -0.088594034 0.17787331 -0.24648844 0.12712353
0.30013287 -0.0009782062 0.10954588 -0.06624863 0.18953565 0.25469616 0.19524153 -0.06672562
0.28026965 -0.27695775 0.11210014 0.18687534 -0.09443191 0.14026631 0.1565802 -0.05075225
0.18962766 -0.55015284 0.23539607 0.21316034 0.20792209 0.3108191 0.32825053 0.46655747
-0.19129543 -0.4593447 0.33386168 -0.35460886 -0.23222889 0.23935412 -0.1873179 0.28379092
0.20198981 -0.10441111 0.32473218 -0.34792948 -0.42906213 -0.30102298 -1.887786e-05 0.32512686
-0.113285534 0.0447654 0.27557325 0.21020706 0.23981641 0.2439607 0.17499329 -0.33492276
00000000: 57c6 143a 95c2 b43e aa6a 8a3e 47b5 9a3d
00000010: 5cfb a1bd 05a2 623c 0813 9c3e 9fe2 e73d
00000020: a483 113e 00bd 0c3e fced 3f3e 79f0 1bba
00000030: ca70 b5bd 6c24 363e 7767 7cbe ac2c 023e
00000040: 04ab 993e 2737 80ba 9759 e03d 5dad 87bd
00000050: a215 423e 8967 823e 65ed 473e 71a7 88bd
00000060: 817f 8f3e 68cd 8dbe c294 e53d 405c 3f3e
00000070: 8465 c1bd f9a1 0f3e 8f56 203e 97e1 4fbd
00000080: c12d 423e d1d6 0cbf ab0b 713e b446 5a3e
00000090: 87e9 543e ae23 9f3e 7410 a83e 9fe0 ee3e
000000a0: f3e2 43be 3b2f ebbe ebef aa3e 4b8f b5be
000000b0: 69cd 6dbe 3f19 753e 43d0 3fbe 0b4d 913e
000000c0: 6bd6 4e3e 7ed5 d5bd 4c43 a63e d023 b2be
000000d0: 08ae dbbe af1f 9abe e55b 9eb7 0777 a63e
000000e0: 3f02 e8bd ed5b 373d f017 8d3e 8540 573e
000000f0: 6f92 753e d5d0 793e 7131 333e ff7a abbe

value_fc2.weight f4 [1, 64]
-0.27424178 0.16027842 -0.11634407 0.21772872 0.01934065 -0.47761756 -0.04855422 0.32929167
-0.2494027 -0.16575015 -0.0012484696 -0.29528543 0.12132854 0.34822536 0.9771023 -0.42733648
0.11408397 -0.4905504 -0.15380876 0.1486132 0.15253994 -0.24403031 -0.1110709 0.2302949
-0.03691523 -1.1970279 -0.6842727 -0.19741435 1.2866974 -0.18500182 -0.511486 -1.3967732
-0.12377871 0.7383969 -0.1669815 -0.3362666 -0.40317547 -0.046267506 -0.12659657 0.83285946
0.010717181 0.50195014 -0.069476046 0.5281907 0.69599766 0.20336065 0.24557443 0.054679904
0.10167986 0.15947442 -0.20406029 -0.6352123 0.36666858 0.06543943 -1.1884252 0.08584922
0.7048683 0.15574954 -0.06385009 0.15533032 -0.41628444 0.27458322 0.363862 0.112863086
00000000: 6b69 8cbe 0720 243e cd45 eebd 47f4 5e3e
00000010: 4870 9e3c 4a8a f4be cae0 46bd eb98 a83e
00000020: 6c63 7fbe 68ba 29be b0a3 a3ba a72f 97be
00000030: 197b f83d 984a b23e 6023 7a3f d9cb dabe
00000040: dba4 e93d 6c29 fbbe 0b80 1dbe 0f2e 183e
00000050: 6e33 1c3e 15e3 79be 2479 e3bd 6dd2 6b3e
00000060: 6d34 17bd 3638 99bf 7f2c 2fbf fd26 4abe
00000070: 80b2 a43f 1e71 3dbe bff0 02bf 77c9 b2bf
00000080: b17f fdbd 9407 3d3f 33fd 2abe 232b acbe
00000090: 046d cebe ff82 3dbd 88a2 01be 4736 553f
000000a0: 1d97 2f3c ce7f 003f 7549 8ebd 8137 073f
000000b0: e72c 323f c63d 503e dd77 7b3e 09f8 5f3d
000000c0: 883d d03d 434d 233e 2ef5 50be 469d 22bf
000000d0: fcbb bb3e 1c05 863d 511e 98bf b7d1 af3d
000000e0: 4072 343f cf7c 1f3e d6c3 82bd e90e 1f3e
000000f0: 3c23 d5be 2c96 8c3e 1f4c ba3e c324 e73d
